Last login: Tue Jan  2 20:04:52 on ttys000
-bash: /usr/local/bin/virtualenvwrapper.sh: No such file or directory
JoedeMacBook-Pro:fu_pred runzhou$ source ~/sp/bin/activate
(sp) JoedeMacBook-Pro:fu_pred runzhou$ ./test.sh
Using TensorFlow backend.
('testing for: ', 'al')
('Compilation Time : ', 0.06867504119873047)
_________________________________________________________________
Layer (type)                 Output Shape              Param #   
=================================================================
lstm_1 (LSTM)                (None, 1, 128)            66560     
_________________________________________________________________
dropout_1 (Dropout)          (None, 1, 128)            0         
_________________________________________________________________
lstm_2 (LSTM)                (None, 128)               131584    
_________________________________________________________________
dropout_2 (Dropout)          (None, 128)               0         
_________________________________________________________________
dense_1 (Dense)              (None, 32)                4128      
_________________________________________________________________
dense_2 (Dense)              (None, 1)                 33        
=================================================================
Total params: 202,305
Trainable params: 202,305
Non-trainable params: 0
_________________________________________________________________
2018-01-03 09:48:04.061246: I tensorflow/core/platform/cpu_feature_guard.cc:137] Your CPU supports instructions that this TensorFlow binary was not compiled to use: SSE4.2 AVX AVX2 FMA
window: 1 accuracy: 0.525974025974
Test for all data: window: 1 accuracy: 1.0
('Compilation Time : ', 0.055197954177856445)
_________________________________________________________________
Layer (type)                 Output Shape              Param #   
=================================================================
lstm_3 (LSTM)                (None, 2, 128)            66560     
_________________________________________________________________
dropout_3 (Dropout)          (None, 2, 128)            0         
_________________________________________________________________
lstm_4 (LSTM)                (None, 128)               131584    
_________________________________________________________________
dropout_4 (Dropout)          (None, 128)               0         
_________________________________________________________________
dense_3 (Dense)              (None, 32)                4128      
_________________________________________________________________
dense_4 (Dense)              (None, 1)                 33        
=================================================================
Total params: 202,305
Trainable params: 202,305
Non-trainable params: 0
_________________________________________________________________
window: 2 accuracy: 0.402597402597
Test for all data: window: 2 accuracy: 0.560723514212
('Compilation Time : ', 0.03885602951049805)
_________________________________________________________________
Layer (type)                 Output Shape              Param #   
=================================================================
lstm_5 (LSTM)                (None, 3, 128)            66560     
_________________________________________________________________
dropout_5 (Dropout)          (None, 3, 128)            0         
_________________________________________________________________
lstm_6 (LSTM)                (None, 128)               131584    
_________________________________________________________________
dropout_6 (Dropout)          (None, 128)               0         
_________________________________________________________________
dense_5 (Dense)              (None, 32)                4128      
_________________________________________________________________
dense_6 (Dense)              (None, 1)                 33        
=================================================================
Total params: 202,305
Trainable params: 202,305
Non-trainable params: 0
_________________________________________________________________
window: 3 accuracy: 0.525974025974
Test for all data: window: 3 accuracy: 0.555268261151
('Compilation Time : ', 0.038172006607055664)
_________________________________________________________________
Layer (type)                 Output Shape              Param #   
=================================================================
lstm_7 (LSTM)                (None, 4, 128)            66560     
_________________________________________________________________
dropout_7 (Dropout)          (None, 4, 128)            0         
_________________________________________________________________
lstm_8 (LSTM)                (None, 128)               131584    
_________________________________________________________________
dropout_8 (Dropout)          (None, 128)               0         
_________________________________________________________________
dense_7 (Dense)              (None, 32)                4128      
_________________________________________________________________
dense_8 (Dense)              (None, 1)                 33        
=================================================================
Total params: 202,305
Trainable params: 202,305
Non-trainable params: 0
_________________________________________________________________
window: 4 accuracy: 0.545454545455
Test for all data: window: 4 accuracy: 0.534928848642
('Compilation Time : ', 0.04157400131225586)
_________________________________________________________________
Layer (type)                 Output Shape              Param #   
=================================================================
lstm_9 (LSTM)                (None, 5, 128)            66560     
_________________________________________________________________
dropout_9 (Dropout)          (None, 5, 128)            0         
_________________________________________________________________
lstm_10 (LSTM)               (None, 128)               131584    
_________________________________________________________________
dropout_10 (Dropout)         (None, 128)               0         
_________________________________________________________________
dense_9 (Dense)              (None, 32)                4128      
_________________________________________________________________
dense_10 (Dense)             (None, 1)                 33        
=================================================================
Total params: 202,305
Trainable params: 202,305
Non-trainable params: 0
_________________________________________________________________
^CTraceback (most recent call last):
  File "/Users/runzhou/fu_pred/fu_pred.py", line 115, in <module>
    verbose=0)
  File "/Users/runzhou/sp/lib/python2.7/site-packages/keras/models.py", line 960, in fit
…
    return fn(*args)
  File "/Users/runzhou/sp/lib/python2.7/site-packages/tensorflow/python/client/session.py", line 1302, in _run_fn
    status, run_metadata)
KeyboardInterrupt
Using TensorFlow backend.
^Z
[1]+  Stopped                 ./test.sh
(sp) JoedeMacBook-Pro:fu_pred runzhou$ ./test.sh
Using TensorFlow backend.
('testing for: ', 'al')
('Compilation Time : ', 0.044174909591674805)
_________________________________________________________________
Layer (type)                 Output Shape              Param #   
=================================================================
lstm_1 (LSTM)                (None, 1, 128)            66560     
_________________________________________________________________
dropout_1 (Dropout)          (None, 1, 128)            0         
_________________________________________________________________
lstm_2 (LSTM)                (None, 128)               131584    
_________________________________________________________________
dropout_2 (Dropout)          (None, 128)               0         
_________________________________________________________________
dense_1 (Dense)              (None, 32)                4128      
_________________________________________________________________
dense_2 (Dense)              (None, 1)                 33        
=================================================================
Total params: 202,305
Trainable params: 202,305
Non-trainable params: 0
_________________________________________________________________
2018-01-03 09:52:56.316632: I tensorflow/core/platform/cpu_feature_guard.cc:137] Your CPU supports instructions that this TensorFlow binary was not compiled to use: SSE4.2 AVX AVX2 FMA
window: 1 accuracy: 0.525974025974
Test for all data: window: 1 accuracy: 0.477727566172
('Compilation Time : ', 0.04694819450378418)
_________________________________________________________________
Layer (type)                 Output Shape              Param #   
=================================================================
lstm_3 (LSTM)                (None, 2, 128)            66560     
_________________________________________________________________
dropout_3 (Dropout)          (None, 2, 128)            0         
_________________________________________________________________
lstm_4 (LSTM)                (None, 128)               131584    
_________________________________________________________________
dropout_4 (Dropout)          (None, 128)               0         
_________________________________________________________________
dense_3 (Dense)              (None, 32)                4128      
_________________________________________________________________
dense_4 (Dense)              (None, 1)                 33        
=================================================================
Total params: 202,305
Trainable params: 202,305
Non-trainable params: 0
_________________________________________________________________
window: 2 accuracy: 0.409090909091
Test for all data: window: 2 accuracy: 0.505167958656
('Compilation Time : ', 0.0331268310546875)
_________________________________________________________________
Layer (type)                 Output Shape              Param #   
=================================================================
lstm_5 (LSTM)                (None, 3, 128)            66560     
_________________________________________________________________
dropout_5 (Dropout)          (None, 3, 128)            0         
_________________________________________________________________
lstm_6 (LSTM)                (None, 128)               131584    
_________________________________________________________________
dropout_6 (Dropout)          (None, 128)               0         
_________________________________________________________________
dense_5 (Dense)              (None, 32)                4128      
_________________________________________________________________
dense_6 (Dense)              (None, 1)                 33        
=================================================================
Total params: 202,305
Trainable params: 202,305
Non-trainable params: 0
_________________________________________________________________
window: 3 accuracy: 0.532467532468
Test for all data: window: 3 accuracy: 0.490627020039
('Compilation Time : ', 0.044114112854003906)
_________________________________________________________________
Layer (type)                 Output Shape              Param #   
=================================================================
lstm_7 (LSTM)                (None, 4, 128)            66560     
_________________________________________________________________
dropout_7 (Dropout)          (None, 4, 128)            0         
_________________________________________________________________
lstm_8 (LSTM)                (None, 128)               131584    
_________________________________________________________________
dropout_8 (Dropout)          (None, 128)               0         
_________________________________________________________________
dense_7 (Dense)              (None, 32)                4128      
_________________________________________________________________
dense_8 (Dense)              (None, 1)                 33        
=================================================================
Total params: 202,305
Trainable params: 202,305
Non-trainable params: 0
_________________________________________________________________
window: 4 accuracy: 0.545454545455
Test for all data: window: 4 accuracy: 0.509055627426
('Compilation Time : ', 0.03726911544799805)
_________________________________________________________________
Layer (type)                 Output Shape              Param #   
=================================================================
lstm_9 (LSTM)                (None, 5, 128)            66560     
_________________________________________________________________
dropout_9 (Dropout)          (None, 5, 128)            0         
_________________________________________________________________
lstm_10 (LSTM)               (None, 128)               131584    
_________________________________________________________________
dropout_10 (Dropout)         (None, 128)               0         
_________________________________________________________________
dense_9 (Dense)              (None, 32)                4128      
_________________________________________________________________
dense_10 (Dense)             (None, 1)                 33        
=================================================================
Total params: 202,305
Trainable params: 202,305
Non-trainable params: 0
_________________________________________________________________
window: 5 accuracy: 0.487012987013
Test for all data: window: 5 accuracy: 0.497734627832
('Compilation Time : ', 0.035676002502441406)
_________________________________________________________________
Layer (type)                 Output Shape              Param #   
=================================================================
lstm_11 (LSTM)               (None, 6, 128)            66560     
_________________________________________________________________
dropout_11 (Dropout)         (None, 6, 128)            0         
_________________________________________________________________
lstm_12 (LSTM)               (None, 128)               131584    
_________________________________________________________________
dropout_12 (Dropout)         (None, 128)               0         
_________________________________________________________________
dense_11 (Dense)             (None, 32)                4128      
_________________________________________________________________
dense_12 (Dense)             (None, 1)                 33        
=================================================================
Total params: 202,305
Trainable params: 202,305
Non-trainable params: 0
_________________________________________________________________
^Z
[2]+  Stopped                 ./test.sh
(sp) JoedeMacBook-Pro:fu_pred runzhou$ ./test.sh
Using TensorFlow backend.
('testing for: ', 'al')
('Compilation Time : ', 0.03651285171508789)
_________________________________________________________________
Layer (type)                 Output Shape              Param #   
=================================================================
lstm_1 (LSTM)                (None, 1, 128)            66560     
_________________________________________________________________
dropout_1 (Dropout)          (None, 1, 128)            0         
_________________________________________________________________
lstm_2 (LSTM)                (None, 128)               131584    
_________________________________________________________________
dropout_2 (Dropout)          (None, 128)               0         
_________________________________________________________________
dense_1 (Dense)              (None, 32)                4128      
_________________________________________________________________
dense_2 (Dense)              (None, 1)                 33        
=================================================================
Total params: 202,305
Trainable params: 202,305
Non-trainable params: 0
_________________________________________________________________
2018-01-03 09:58:37.134929: I tensorflow/core/platform/cpu_feature_guard.cc:137] Your CPU supports instructions that this TensorFlow binary was not compiled to use: SSE4.2 AVX AVX2 FMA
window: 1 accuracy: 0.525974025974
Test for all data: window: 1 accuracy: 0.477727566172
('Compilation Time : ', 0.046971797943115234)
_________________________________________________________________
Layer (type)                 Output Shape              Param #   
=================================================================
lstm_3 (LSTM)                (None, 2, 128)            66560     
_________________________________________________________________
dropout_3 (Dropout)          (None, 2, 128)            0         
_________________________________________________________________
lstm_4 (LSTM)                (None, 128)               131584    
_________________________________________________________________
dropout_4 (Dropout)          (None, 128)               0         
_________________________________________________________________
dense_3 (Dense)              (None, 32)                4128      
_________________________________________________________________
dense_4 (Dense)              (None, 1)                 33        
=================================================================
Total params: 202,305
Trainable params: 202,305
Non-trainable params: 0
_________________________________________________________________
window: 2 accuracy: 0.402597402597
Test for all data: window: 2 accuracy: 0.50645994832
('Compilation Time : ', 0.047981977462768555)
_________________________________________________________________
Layer (type)                 Output Shape              Param #   
=================================================================
lstm_5 (LSTM)                (None, 3, 128)            66560     
_________________________________________________________________
dropout_5 (Dropout)          (None, 3, 128)            0         
_________________________________________________________________
lstm_6 (LSTM)                (None, 128)               131584    
_________________________________________________________________
dropout_6 (Dropout)          (None, 128)               0         
_________________________________________________________________
dense_5 (Dense)              (None, 32)                4128      
_________________________________________________________________
dense_6 (Dense)              (None, 1)                 33        
=================================================================
Total params: 202,305
Trainable params: 202,305
Non-trainable params: 0
_________________________________________________________________
window: 3 accuracy: 0.532467532468
Test for all data: window: 3 accuracy: 0.488041370394
('Compilation Time : ', 0.0530238151550293)
_________________________________________________________________
Layer (type)                 Output Shape              Param #   
=================================================================
lstm_7 (LSTM)                (None, 4, 128)            66560     
_________________________________________________________________
dropout_7 (Dropout)          (None, 4, 128)            0         
_________________________________________________________________
lstm_8 (LSTM)                (None, 128)               131584    
_________________________________________________________________
dropout_8 (Dropout)          (None, 128)               0         
_________________________________________________________________
dense_7 (Dense)              (None, 32)                4128      
_________________________________________________________________
dense_8 (Dense)              (None, 1)                 33        
=================================================================
Total params: 202,305
Trainable params: 202,305
Non-trainable params: 0
_________________________________________________________________
window: 4 accuracy: 0.545454545455
Test for all data: window: 4 accuracy: 0.507761966365
('Compilation Time : ', 0.035195112228393555)
_________________________________________________________________
Layer (type)                 Output Shape              Param #   
=================================================================
lstm_9 (LSTM)                (None, 5, 128)            66560     
_________________________________________________________________
dropout_9 (Dropout)          (None, 5, 128)            0         
_________________________________________________________________
lstm_10 (LSTM)               (None, 128)               131584    
_________________________________________________________________
dropout_10 (Dropout)         (None, 128)               0         
_________________________________________________________________
dense_9 (Dense)              (None, 32)                4128      
_________________________________________________________________
dense_10 (Dense)             (None, 1)                 33        
=================================================================
Total params: 202,305
Trainable params: 202,305
Non-trainable params: 0
_________________________________________________________________
window: 5 accuracy: 0.480519480519
Test for all data: window: 5 accuracy: 0.492556634304
('Compilation Time : ', 0.0425419807434082)
_________________________________________________________________
Layer (type)                 Output Shape              Param #   
=================================================================
lstm_11 (LSTM)               (None, 6, 128)            66560     
_________________________________________________________________
dropout_11 (Dropout)         (None, 6, 128)            0         
_________________________________________________________________
lstm_12 (LSTM)               (None, 128)               131584    
_________________________________________________________________
dropout_12 (Dropout)         (None, 128)               0         
_________________________________________________________________
dense_11 (Dense)             (None, 32)                4128      
_________________________________________________________________
dense_12 (Dense)             (None, 1)                 33        
=================================================================
Total params: 202,305
Trainable params: 202,305
Non-trainable params: 0
_________________________________________________________________
window: 6 accuracy: 0.509803921569
Test for all data: window: 6 accuracy: 0.489637305699
('Compilation Time : ', 0.05410909652709961)
_________________________________________________________________
Layer (type)                 Output Shape              Param #   
=================================================================
lstm_13 (LSTM)               (None, 7, 128)            66560     
_________________________________________________________________
dropout_13 (Dropout)         (None, 7, 128)            0         
_________________________________________________________________
lstm_14 (LSTM)               (None, 128)               131584    
_________________________________________________________________
dropout_14 (Dropout)         (None, 128)               0         
_________________________________________________________________
dense_13 (Dense)             (None, 32)                4128      
_________________________________________________________________
dense_14 (Dense)             (None, 1)                 33        
=================================================================
Total params: 202,305
Trainable params: 202,305
Non-trainable params: 0
_________________________________________________________________
window: 7 accuracy: 0.535947712418
Test for all data: window: 7 accuracy: 0.49578742709
('Compilation Time : ', 0.03991198539733887)
_________________________________________________________________
Layer (type)                 Output Shape              Param #   
=================================================================
lstm_15 (LSTM)               (None, 8, 128)            66560     
_________________________________________________________________
dropout_15 (Dropout)         (None, 8, 128)            0         
_________________________________________________________________
lstm_16 (LSTM)               (None, 128)               131584    
_________________________________________________________________
dropout_16 (Dropout)         (None, 128)               0         
_________________________________________________________________
dense_15 (Dense)             (None, 32)                4128      
_________________________________________________________________
dense_16 (Dense)             (None, 1)                 33        
=================================================================
Total params: 202,305
Trainable params: 202,305
Non-trainable params: 0
_________________________________________________________________
window: 8 accuracy: 0.542483660131
Test for all data: window: 8 accuracy: 0.495460440986
('Compilation Time : ', 0.03762507438659668)
_________________________________________________________________
Layer (type)                 Output Shape              Param #   
=================================================================
lstm_17 (LSTM)               (None, 9, 128)            66560     
_________________________________________________________________
dropout_17 (Dropout)         (None, 9, 128)            0         
_________________________________________________________________
lstm_18 (LSTM)               (None, 128)               131584    
_________________________________________________________________
dropout_18 (Dropout)         (None, 128)               0         
_________________________________________________________________
dense_17 (Dense)             (None, 32)                4128      
_________________________________________________________________
dense_18 (Dense)             (None, 1)                 33        
=================================================================
Total params: 202,305
Trainable params: 202,305
Non-trainable params: 0
_________________________________________________________________
window: 9 accuracy: 0.490196078431
Test for all data: window: 9 accuracy: 0.493835171966
('Compilation Time : ', 0.08108305931091309)
_________________________________________________________________
Layer (type)                 Output Shape              Param #   
=================================================================
lstm_19 (LSTM)               (None, 10, 128)           66560     
_________________________________________________________________
dropout_19 (Dropout)         (None, 10, 128)           0         
_________________________________________________________________
lstm_20 (LSTM)               (None, 128)               131584    
_________________________________________________________________
dropout_20 (Dropout)         (None, 128)               0         
_________________________________________________________________
dense_19 (Dense)             (None, 32)                4128      
_________________________________________________________________
dense_20 (Dense)             (None, 1)                 33        
=================================================================
Total params: 202,305
Trainable params: 202,305
Non-trainable params: 0
_________________________________________________________________
window: 10 accuracy: 0.470588235294
Test for all data: window: 10 accuracy: 0.492857142857
('Compilation Time : ', 0.043531179428100586)
_________________________________________________________________
Layer (type)                 Output Shape              Param #   
=================================================================
lstm_21 (LSTM)               (None, 11, 128)           66560     
_________________________________________________________________
dropout_21 (Dropout)         (None, 11, 128)           0         
_________________________________________________________________
lstm_22 (LSTM)               (None, 128)               131584    
_________________________________________________________________
dropout_22 (Dropout)         (None, 128)               0         
_________________________________________________________________
dense_21 (Dense)             (None, 32)                4128      
_________________________________________________________________
dense_22 (Dense)             (None, 1)                 33        
=================================================================
Total params: 202,305
Trainable params: 202,305
Non-trainable params: 0
_________________________________________________________________
window: 11 accuracy: 0.496732026144
Test for all data: window: 11 accuracy: 0.489928525016
('Compilation Time : ', 0.049141883850097656)
_________________________________________________________________
Layer (type)                 Output Shape              Param #   
=================================================================
lstm_23 (LSTM)               (None, 12, 128)           66560     
_________________________________________________________________
dropout_23 (Dropout)         (None, 12, 128)           0         
_________________________________________________________________
lstm_24 (LSTM)               (None, 128)               131584    
_________________________________________________________________
dropout_24 (Dropout)         (None, 128)               0         
_________________________________________________________________
dense_23 (Dense)             (None, 32)                4128      
_________________________________________________________________
dense_24 (Dense)             (None, 1)                 33        
=================================================================
Total params: 202,305
Trainable params: 202,305
Non-trainable params: 0
_________________________________________________________________
window: 12 accuracy: 0.490196078431
Test for all data: window: 12 accuracy: 0.498699609883
('Compilation Time : ', 0.0573887825012207)
_________________________________________________________________
Layer (type)                 Output Shape              Param #   
=================================================================
lstm_25 (LSTM)               (None, 13, 128)           66560     
_________________________________________________________________
dropout_25 (Dropout)         (None, 13, 128)           0         
_________________________________________________________________
lstm_26 (LSTM)               (None, 128)               131584    
_________________________________________________________________
dropout_26 (Dropout)         (None, 128)               0         
_________________________________________________________________
dense_25 (Dense)             (None, 32)                4128      
_________________________________________________________________
dense_26 (Dense)             (None, 1)                 33        
=================================================================
Total params: 202,305
Trainable params: 202,305
Non-trainable params: 0
_________________________________________________________________
window: 13 accuracy: 0.503267973856
Test for all data: window: 13 accuracy: 0.49186727391
('Compilation Time : ', 0.03314995765686035)
_________________________________________________________________
Layer (type)                 Output Shape              Param #   
=================================================================
lstm_27 (LSTM)               (None, 14, 128)           66560     
_________________________________________________________________
dropout_27 (Dropout)         (None, 14, 128)           0         
_________________________________________________________________
lstm_28 (LSTM)               (None, 128)               131584    
_________________________________________________________________
dropout_28 (Dropout)         (None, 128)               0         
_________________________________________________________________
dense_27 (Dense)             (None, 32)                4128      
_________________________________________________________________
dense_28 (Dense)             (None, 1)                 33        
=================================================================
Total params: 202,305
Trainable params: 202,305
Non-trainable params: 0
_________________________________________________________________
window: 14 accuracy: 0.529411764706
Test for all data: window: 14 accuracy: 0.494140625
('Compilation Time : ', 0.042780160903930664)
_________________________________________________________________
Layer (type)                 Output Shape              Param #   
=================================================================
lstm_29 (LSTM)               (None, 15, 128)           66560     
_________________________________________________________________
dropout_29 (Dropout)         (None, 15, 128)           0         
_________________________________________________________________
lstm_30 (LSTM)               (None, 128)               131584    
_________________________________________________________________
dropout_30 (Dropout)         (None, 128)               0         
_________________________________________________________________
dense_29 (Dense)             (None, 32)                4128      
_________________________________________________________________
dense_30 (Dense)             (None, 1)                 33        
=================================================================
Total params: 202,305
Trainable params: 202,305
Non-trainable params: 0
_________________________________________________________________
window: 15 accuracy: 0.483660130719
Test for all data: window: 15 accuracy: 0.488599348534
('Compilation Time : ', 0.03221702575683594)
_________________________________________________________________
Layer (type)                 Output Shape              Param #   
=================================================================
lstm_31 (LSTM)               (None, 16, 128)           66560     
_________________________________________________________________
dropout_31 (Dropout)         (None, 16, 128)           0         
_________________________________________________________________
lstm_32 (LSTM)               (None, 128)               131584    
_________________________________________________________________
dropout_32 (Dropout)         (None, 128)               0         
_________________________________________________________________
dense_31 (Dense)             (None, 32)                4128      
_________________________________________________________________
dense_32 (Dense)             (None, 1)                 33        
=================================================================
Total params: 202,305
Trainable params: 202,305
Non-trainable params: 0
_________________________________________________________________
window: 16 accuracy: 0.519736842105
Test for all data: window: 16 accuracy: 0.485006518905
Using TensorFlow backend.
('testing for: ', 'au')
('Compilation Time : ', 0.0425410270690918)
_________________________________________________________________
Layer (type)                 Output Shape              Param #   
=================================================================
lstm_1 (LSTM)                (None, 1, 128)            66560     
_________________________________________________________________
dropout_1 (Dropout)          (None, 1, 128)            0         
_________________________________________________________________
lstm_2 (LSTM)                (None, 128)               131584    
_________________________________________________________________
dropout_2 (Dropout)          (None, 128)               0         
_________________________________________________________________
dense_1 (Dense)              (None, 32)                4128      
_________________________________________________________________
dense_2 (Dense)              (None, 1)                 33        
=================================================================
Total params: 202,305
Trainable params: 202,305
Non-trainable params: 0
_________________________________________________________________
2018-01-03 10:33:15.270024: I tensorflow/core/platform/cpu_feature_guard.cc:137] Your CPU supports instructions that this TensorFlow binary was not compiled to use: SSE4.2 AVX AVX2 FMA
window: 1 accuracy: 0.434210526316
Test for all data: window: 1 accuracy: 0.462842242503
('Compilation Time : ', 0.03452491760253906)
_________________________________________________________________
Layer (type)                 Output Shape              Param #   
=================================================================
lstm_3 (LSTM)                (None, 2, 128)            66560     
_________________________________________________________________
dropout_3 (Dropout)          (None, 2, 128)            0         
_________________________________________________________________
lstm_4 (LSTM)                (None, 128)               131584    
_________________________________________________________________
dropout_4 (Dropout)          (None, 128)               0         
_________________________________________________________________
dense_3 (Dense)              (None, 32)                4128      
_________________________________________________________________
dense_4 (Dense)              (None, 1)                 33        
=================================================================
Total params: 202,305
Trainable params: 202,305
Non-trainable params: 0
_________________________________________________________________
window: 2 accuracy: 0.486842105263
Test for all data: window: 2 accuracy: 0.496412263536
('Compilation Time : ', 0.06663298606872559)
_________________________________________________________________
Layer (type)                 Output Shape              Param #   
=================================================================
lstm_5 (LSTM)                (None, 3, 128)            66560     
_________________________________________________________________
dropout_5 (Dropout)          (None, 3, 128)            0         
_________________________________________________________________
lstm_6 (LSTM)                (None, 128)               131584    
_________________________________________________________________
dropout_6 (Dropout)          (None, 128)               0         
_________________________________________________________________
dense_5 (Dense)              (None, 32)                4128      
_________________________________________________________________
dense_6 (Dense)              (None, 1)                 33        
=================================================================
Total params: 202,305
Trainable params: 202,305
Non-trainable params: 0
_________________________________________________________________
window: 3 accuracy: 0.519736842105
Test for all data: window: 3 accuracy: 0.494125326371
('Compilation Time : ', 0.03359079360961914)
_________________________________________________________________
Layer (type)                 Output Shape              Param #   
=================================================================
lstm_7 (LSTM)                (None, 4, 128)            66560     
_________________________________________________________________
dropout_7 (Dropout)          (None, 4, 128)            0         
_________________________________________________________________
lstm_8 (LSTM)                (None, 128)               131584    
_________________________________________________________________
dropout_8 (Dropout)          (None, 128)               0         
_________________________________________________________________
dense_7 (Dense)              (None, 32)                4128      
_________________________________________________________________
dense_8 (Dense)              (None, 1)                 33        
=================================================================
Total params: 202,305
Trainable params: 202,305
Non-trainable params: 0
_________________________________________________________________
window: 4 accuracy: 0.473684210526
Test for all data: window: 4 accuracy: 0.489875898106
('Compilation Time : ', 0.0402829647064209)
_________________________________________________________________
Layer (type)                 Output Shape              Param #   
=================================================================
lstm_9 (LSTM)                (None, 5, 128)            66560     
_________________________________________________________________
dropout_9 (Dropout)          (None, 5, 128)            0         
_________________________________________________________________
lstm_10 (LSTM)               (None, 128)               131584    
_________________________________________________________________
dropout_10 (Dropout)         (None, 128)               0         
_________________________________________________________________
dense_9 (Dense)              (None, 32)                4128      
_________________________________________________________________
dense_10 (Dense)             (None, 1)                 33        
=================================================================
Total params: 202,305
Trainable params: 202,305
Non-trainable params: 0
_________________________________________________________________
window: 5 accuracy: 0.473684210526
Test for all data: window: 5 accuracy: 0.483660130719
('Compilation Time : ', 0.0326390266418457)
_________________________________________________________________
Layer (type)                 Output Shape              Param #   
=================================================================
lstm_11 (LSTM)               (None, 6, 128)            66560     
_________________________________________________________________
dropout_11 (Dropout)         (None, 6, 128)            0         
_________________________________________________________________
lstm_12 (LSTM)               (None, 128)               131584    
_________________________________________________________________
dropout_12 (Dropout)         (None, 128)               0         
_________________________________________________________________
dense_11 (Dense)             (None, 32)                4128      
_________________________________________________________________
dense_12 (Dense)             (None, 1)                 33        
=================================================================
Total params: 202,305
Trainable params: 202,305
Non-trainable params: 0
_________________________________________________________________
window: 6 accuracy: 0.480263157895
Test for all data: window: 6 accuracy: 0.474166121648
('Compilation Time : ', 0.059335947036743164)
_________________________________________________________________
Layer (type)                 Output Shape              Param #   
=================================================================
lstm_13 (LSTM)               (None, 7, 128)            66560     
_________________________________________________________________
dropout_13 (Dropout)         (None, 7, 128)            0         
_________________________________________________________________
lstm_14 (LSTM)               (None, 128)               131584    
_________________________________________________________________
dropout_14 (Dropout)         (None, 128)               0         
_________________________________________________________________
dense_13 (Dense)             (None, 32)                4128      
_________________________________________________________________
dense_14 (Dense)             (None, 1)                 33        
=================================================================
Total params: 202,305
Trainable params: 202,305
Non-trainable params: 0
_________________________________________________________________
window: 7 accuracy: 0.440789473684
Test for all data: window: 7 accuracy: 0.471204188482
('Compilation Time : ', 0.03338193893432617)
_________________________________________________________________
Layer (type)                 Output Shape              Param #   
=================================================================
lstm_15 (LSTM)               (None, 8, 128)            66560     
_________________________________________________________________
dropout_15 (Dropout)         (None, 8, 128)            0         
_________________________________________________________________
lstm_16 (LSTM)               (None, 128)               131584    
_________________________________________________________________
dropout_16 (Dropout)         (None, 128)               0         
_________________________________________________________________
dense_15 (Dense)             (None, 32)                4128      
_________________________________________________________________
dense_16 (Dense)             (None, 1)                 33        
=================================================================
Total params: 202,305
Trainable params: 202,305
Non-trainable params: 0
_________________________________________________________________
window: 8 accuracy: 0.480263157895
Test for all data: window: 8 accuracy: 0.47347740668
('Compilation Time : ', 0.0339818000793457)
_________________________________________________________________
Layer (type)                 Output Shape              Param #   
=================================================================
lstm_17 (LSTM)               (None, 9, 128)            66560     
_________________________________________________________________
dropout_17 (Dropout)         (None, 9, 128)            0         
_________________________________________________________________
lstm_18 (LSTM)               (None, 128)               131584    
_________________________________________________________________
dropout_18 (Dropout)         (None, 128)               0         
_________________________________________________________________
dense_17 (Dense)             (None, 32)                4128      
_________________________________________________________________
dense_18 (Dense)             (None, 1)                 33        
=================================================================
Total params: 202,305
Trainable params: 202,305
Non-trainable params: 0
_________________________________________________________________
window: 9 accuracy: 0.440789473684
Test for all data: window: 9 accuracy: 0.463958060288
('Compilation Time : ', 0.06185603141784668)
_________________________________________________________________
Layer (type)                 Output Shape              Param #   
=================================================================
lstm_19 (LSTM)               (None, 10, 128)           66560     
_________________________________________________________________
dropout_19 (Dropout)         (None, 10, 128)           0         
_________________________________________________________________
lstm_20 (LSTM)               (None, 128)               131584    
_________________________________________________________________
dropout_20 (Dropout)         (None, 128)               0         
_________________________________________________________________
dense_19 (Dense)             (None, 32)                4128      
_________________________________________________________________
dense_20 (Dense)             (None, 1)                 33        
=================================================================
Total params: 202,305
Trainable params: 202,305
Non-trainable params: 0
_________________________________________________________________
window: 10 accuracy: 0.460526315789
Test for all data: window: 10 accuracy: 0.475409836066
('Compilation Time : ', 0.040344953536987305)
_________________________________________________________________
Layer (type)                 Output Shape              Param #   
=================================================================
lstm_21 (LSTM)               (None, 11, 128)           66560     
_________________________________________________________________
dropout_21 (Dropout)         (None, 11, 128)           0         
_________________________________________________________________
lstm_22 (LSTM)               (None, 128)               131584    
_________________________________________________________________
dropout_22 (Dropout)         (None, 128)               0         
_________________________________________________________________
dense_21 (Dense)             (None, 32)                4128      
_________________________________________________________________
dense_22 (Dense)             (None, 1)                 33        
=================================================================
Total params: 202,305
Trainable params: 202,305
Non-trainable params: 0
_________________________________________________________________
window: 11 accuracy: 0.456953642384
Test for all data: window: 11 accuracy: 0.471128608924
('Compilation Time : ', 0.05622386932373047)
_________________________________________________________________
Layer (type)                 Output Shape              Param #   
=================================================================
lstm_23 (LSTM)               (None, 12, 128)           66560     
_________________________________________________________________
dropout_23 (Dropout)         (None, 12, 128)           0         
_________________________________________________________________
lstm_24 (LSTM)               (None, 128)               131584    
_________________________________________________________________
dropout_24 (Dropout)         (None, 128)               0         
_________________________________________________________________
dense_23 (Dense)             (None, 32)                4128      
_________________________________________________________________
dense_24 (Dense)             (None, 1)                 33        
=================================================================
Total params: 202,305
Trainable params: 202,305
Non-trainable params: 0
_________________________________________________________________
window: 12 accuracy: 0.470198675497
Test for all data: window: 12 accuracy: 0.47537754432
('Compilation Time : ', 0.03364706039428711)
_________________________________________________________________
Layer (type)                 Output Shape              Param #   
=================================================================
lstm_25 (LSTM)               (None, 13, 128)           66560     
_________________________________________________________________
dropout_25 (Dropout)         (None, 13, 128)           0         
_________________________________________________________________
lstm_26 (LSTM)               (None, 128)               131584    
_________________________________________________________________
dropout_26 (Dropout)         (None, 128)               0         
_________________________________________________________________
dense_25 (Dense)             (None, 32)                4128      
_________________________________________________________________
dense_26 (Dense)             (None, 1)                 33        
=================================================================
Total params: 202,305
Trainable params: 202,305
Non-trainable params: 0
_________________________________________________________________
window: 13 accuracy: 0.437086092715
Test for all data: window: 13 accuracy: 0.46714848883
('Compilation Time : ', 0.0341341495513916)
_________________________________________________________________
Layer (type)                 Output Shape              Param #   
=================================================================
lstm_27 (LSTM)               (None, 14, 128)           66560     
_________________________________________________________________
dropout_27 (Dropout)         (None, 14, 128)           0         
_________________________________________________________________
lstm_28 (LSTM)               (None, 128)               131584    
_________________________________________________________________
dropout_28 (Dropout)         (None, 128)               0         
_________________________________________________________________
dense_27 (Dense)             (None, 32)                4128      
_________________________________________________________________
dense_28 (Dense)             (None, 1)                 33        
=================================================================
Total params: 202,305
Trainable params: 202,305
Non-trainable params: 0
_________________________________________________________________
window: 14 accuracy: 0.437086092715
Test for all data: window: 14 accuracy: 0.466798159106
('Compilation Time : ', 0.03522205352783203)
_________________________________________________________________
Layer (type)                 Output Shape              Param #   
=================================================================
lstm_29 (LSTM)               (None, 15, 128)           66560     
_________________________________________________________________
dropout_29 (Dropout)         (None, 15, 128)           0         
_________________________________________________________________
lstm_30 (LSTM)               (None, 128)               131584    
_________________________________________________________________
dropout_30 (Dropout)         (None, 128)               0         
_________________________________________________________________
dense_29 (Dense)             (None, 32)                4128      
_________________________________________________________________
dense_30 (Dense)             (None, 1)                 33        
=================================================================
Total params: 202,305
Trainable params: 202,305
Non-trainable params: 0
_________________________________________________________________
window: 15 accuracy: 0.437086092715
Test for all data: window: 15 accuracy: 0.467105263158
('Compilation Time : ', 0.056060075759887695)
_________________________________________________________________
Layer (type)                 Output Shape              Param #   
=================================================================
lstm_31 (LSTM)               (None, 16, 128)           66560     
_________________________________________________________________
dropout_31 (Dropout)         (None, 16, 128)           0         
_________________________________________________________________
lstm_32 (LSTM)               (None, 128)               131584    
_________________________________________________________________
dropout_32 (Dropout)         (None, 128)               0         
_________________________________________________________________
dense_31 (Dense)             (None, 32)                4128      
_________________________________________________________________
dense_32 (Dense)             (None, 1)                 33        
=================================================================
Total params: 202,305
Trainable params: 202,305
Non-trainable params: 0
_________________________________________________________________
window: 16 accuracy: 0.430463576159
Test for all data: window: 16 accuracy: 0.472021066491
Using TensorFlow backend.
('testing for: ', 'bu')
('Compilation Time : ', 0.043089866638183594)
_________________________________________________________________
Layer (type)                 Output Shape              Param #   
=================================================================
lstm_1 (LSTM)                (None, 1, 128)            66560     
_________________________________________________________________
dropout_1 (Dropout)          (None, 1, 128)            0         
_________________________________________________________________
lstm_2 (LSTM)                (None, 128)               131584    
_________________________________________________________________
dropout_2 (Dropout)          (None, 128)               0         
_________________________________________________________________
dense_1 (Dense)              (None, 32)                4128      
_________________________________________________________________
dense_2 (Dense)              (None, 1)                 33        
=================================================================
Total params: 202,305
Trainable params: 202,305
Non-trainable params: 0
_________________________________________________________________
2018-01-03 11:08:33.901032: I tensorflow/core/platform/cpu_feature_guard.cc:137] Your CPU supports instructions that this TensorFlow binary was not compiled to use: SSE4.2 AVX AVX2 FMA
window: 1 accuracy: 0.367346938776
Test for all data: window: 1 accuracy: 0.482
('Compilation Time : ', 0.035576820373535156)
_________________________________________________________________
Layer (type)                 Output Shape              Param #   
=================================================================
lstm_3 (LSTM)                (None, 2, 128)            66560     
_________________________________________________________________
dropout_3 (Dropout)          (None, 2, 128)            0         
_________________________________________________________________
lstm_4 (LSTM)                (None, 128)               131584    
_________________________________________________________________
dropout_4 (Dropout)          (None, 128)               0         
_________________________________________________________________
dense_3 (Dense)              (None, 32)                4128      
_________________________________________________________________
dense_4 (Dense)              (None, 1)                 33        
=================================================================
Total params: 202,305
Trainable params: 202,305
Non-trainable params: 0
_________________________________________________________________
window: 2 accuracy: 0.448979591837
Test for all data: window: 2 accuracy: 0.468937875752
('Compilation Time : ', 0.05777287483215332)
_________________________________________________________________
Layer (type)                 Output Shape              Param #   
=================================================================
lstm_5 (LSTM)                (None, 3, 128)            66560     
_________________________________________________________________
dropout_5 (Dropout)          (None, 3, 128)            0         
_________________________________________________________________
lstm_6 (LSTM)                (None, 128)               131584    
_________________________________________________________________
dropout_6 (Dropout)          (None, 128)               0         
_________________________________________________________________
dense_5 (Dense)              (None, 32)                4128      
_________________________________________________________________
dense_6 (Dense)              (None, 1)                 33        
=================================================================
Total params: 202,305
Trainable params: 202,305
Non-trainable params: 0
_________________________________________________________________
window: 3 accuracy: 0.489795918367
Test for all data: window: 3 accuracy: 0.508032128514
('Compilation Time : ', 0.035871028900146484)
_________________________________________________________________
Layer (type)                 Output Shape              Param #   
=================================================================
lstm_7 (LSTM)                (None, 4, 128)            66560     
_________________________________________________________________
dropout_7 (Dropout)          (None, 4, 128)            0         
_________________________________________________________________
lstm_8 (LSTM)                (None, 128)               131584    
_________________________________________________________________
dropout_8 (Dropout)          (None, 128)               0         
_________________________________________________________________
dense_7 (Dense)              (None, 32)                4128      
_________________________________________________________________
dense_8 (Dense)              (None, 1)                 33        
=================================================================
Total params: 202,305
Trainable params: 202,305
Non-trainable params: 0
_________________________________________________________________
window: 4 accuracy: 0.612244897959
Test for all data: window: 4 accuracy: 0.501006036217
('Compilation Time : ', 0.07220792770385742)
_________________________________________________________________
Layer (type)                 Output Shape              Param #   
=================================================================
lstm_9 (LSTM)                (None, 5, 128)            66560     
_________________________________________________________________
dropout_9 (Dropout)          (None, 5, 128)            0         
_________________________________________________________________
lstm_10 (LSTM)               (None, 128)               131584    
_________________________________________________________________
dropout_10 (Dropout)         (None, 128)               0         
_________________________________________________________________
dense_9 (Dense)              (None, 32)                4128      
_________________________________________________________________
dense_10 (Dense)             (None, 1)                 33        
=================================================================
Total params: 202,305
Trainable params: 202,305
Non-trainable params: 0
_________________________________________________________________
window: 5 accuracy: 0.428571428571
Test for all data: window: 5 accuracy: 0.473790322581
('Compilation Time : ', 0.04312610626220703)
_________________________________________________________________
Layer (type)                 Output Shape              Param #   
=================================================================
lstm_11 (LSTM)               (None, 6, 128)            66560     
_________________________________________________________________
dropout_11 (Dropout)         (None, 6, 128)            0         
_________________________________________________________________
lstm_12 (LSTM)               (None, 128)               131584    
_________________________________________________________________
dropout_12 (Dropout)         (None, 128)               0         
_________________________________________________________________
dense_11 (Dense)             (None, 32)                4128      
_________________________________________________________________
dense_12 (Dense)             (None, 1)                 33        
=================================================================
Total params: 202,305
Trainable params: 202,305
Non-trainable params: 0
_________________________________________________________________
window: 6 accuracy: 0.510204081633
Test for all data: window: 6 accuracy: 0.49898989899
('Compilation Time : ', 0.03292584419250488)
_________________________________________________________________
Layer (type)                 Output Shape              Param #   
=================================================================
lstm_13 (LSTM)               (None, 7, 128)            66560     
_________________________________________________________________
dropout_13 (Dropout)         (None, 7, 128)            0         
_________________________________________________________________
lstm_14 (LSTM)               (None, 128)               131584    
_________________________________________________________________
dropout_14 (Dropout)         (None, 128)               0         
_________________________________________________________________
dense_13 (Dense)             (None, 32)                4128      
_________________________________________________________________
dense_14 (Dense)             (None, 1)                 33        
=================================================================
Total params: 202,305
Trainable params: 202,305
Non-trainable params: 0
_________________________________________________________________
window: 7 accuracy: 0.458333333333
Test for all data: window: 7 accuracy: 0.45951417004
('Compilation Time : ', 0.04382491111755371)
_________________________________________________________________
Layer (type)                 Output Shape              Param #   
=================================================================
lstm_15 (LSTM)               (None, 8, 128)            66560     
_________________________________________________________________
dropout_15 (Dropout)         (None, 8, 128)            0         
_________________________________________________________________
lstm_16 (LSTM)               (None, 128)               131584    
_________________________________________________________________
dropout_16 (Dropout)         (None, 128)               0         
_________________________________________________________________
dense_15 (Dense)             (None, 32)                4128      
_________________________________________________________________
dense_16 (Dense)             (None, 1)                 33        
=================================================================
Total params: 202,305
Trainable params: 202,305
Non-trainable params: 0
_________________________________________________________________
window: 8 accuracy: 0.458333333333
Test for all data: window: 8 accuracy: 0.478701825558
('Compilation Time : ', 0.0662689208984375)
_________________________________________________________________
Layer (type)                 Output Shape              Param #   
=================================================================
lstm_17 (LSTM)               (None, 9, 128)            66560     
_________________________________________________________________
dropout_17 (Dropout)         (None, 9, 128)            0         
_________________________________________________________________
lstm_18 (LSTM)               (None, 128)               131584    
_________________________________________________________________
dropout_18 (Dropout)         (None, 128)               0         
_________________________________________________________________
dense_17 (Dense)             (None, 32)                4128      
_________________________________________________________________
dense_18 (Dense)             (None, 1)                 33        
=================================================================
Total params: 202,305
Trainable params: 202,305
Non-trainable params: 0
_________________________________________________________________
window: 9 accuracy: 0.458333333333
Test for all data: window: 9 accuracy: 0.471544715447
('Compilation Time : ', 0.0592341423034668)
_________________________________________________________________
Layer (type)                 Output Shape              Param #   
=================================================================
lstm_19 (LSTM)               (None, 10, 128)           66560     
_________________________________________________________________
dropout_19 (Dropout)         (None, 10, 128)           0         
_________________________________________________________________
lstm_20 (LSTM)               (None, 128)               131584    
_________________________________________________________________
dropout_20 (Dropout)         (None, 128)               0         
_________________________________________________________________
dense_19 (Dense)             (None, 32)                4128      
_________________________________________________________________
dense_20 (Dense)             (None, 1)                 33        
=================================================================
Total params: 202,305
Trainable params: 202,305
Non-trainable params: 0
_________________________________________________________________
window: 10 accuracy: 0.416666666667
Test for all data: window: 10 accuracy: 0.484725050916
('Compilation Time : ', 0.03469109535217285)
_________________________________________________________________
Layer (type)                 Output Shape              Param #   
=================================================================
lstm_21 (LSTM)               (None, 11, 128)           66560     
_________________________________________________________________
dropout_21 (Dropout)         (None, 11, 128)           0         
_________________________________________________________________
lstm_22 (LSTM)               (None, 128)               131584    
_________________________________________________________________
dropout_22 (Dropout)         (None, 128)               0         
_________________________________________________________________
dense_21 (Dense)             (None, 32)                4128      
_________________________________________________________________
dense_22 (Dense)             (None, 1)                 33        
=================================================================
Total params: 202,305
Trainable params: 202,305
Non-trainable params: 0
_________________________________________________________________
window: 11 accuracy: 0.4375
Test for all data: window: 11 accuracy: 0.491836734694
('Compilation Time : ', 0.046575069427490234)
_________________________________________________________________
Layer (type)                 Output Shape              Param #   
=================================================================
lstm_23 (LSTM)               (None, 12, 128)           66560     
_________________________________________________________________
dropout_23 (Dropout)         (None, 12, 128)           0         
_________________________________________________________________
lstm_24 (LSTM)               (None, 128)               131584    
_________________________________________________________________
dropout_24 (Dropout)         (None, 128)               0         
_________________________________________________________________
dense_23 (Dense)             (None, 32)                4128      
_________________________________________________________________
dense_24 (Dense)             (None, 1)                 33        
=================================================================
Total params: 202,305
Trainable params: 202,305
Non-trainable params: 0
_________________________________________________________________
window: 12 accuracy: 0.479166666667
Test for all data: window: 12 accuracy: 0.494887525562
('Compilation Time : ', 0.07418990135192871)
_________________________________________________________________
Layer (type)                 Output Shape              Param #   
=================================================================
lstm_25 (LSTM)               (None, 13, 128)           66560     
_________________________________________________________________
dropout_25 (Dropout)         (None, 13, 128)           0         
_________________________________________________________________
lstm_26 (LSTM)               (None, 128)               131584    
_________________________________________________________________
dropout_26 (Dropout)         (None, 128)               0         
_________________________________________________________________
dense_25 (Dense)             (None, 32)                4128      
_________________________________________________________________
dense_26 (Dense)             (None, 1)                 33        
=================================================================
Total params: 202,305
Trainable params: 202,305
Non-trainable params: 0
_________________________________________________________________
window: 13 accuracy: 0.416666666667
Test for all data: window: 13 accuracy: 0.469262295082
('Compilation Time : ', 0.06368803977966309)
_________________________________________________________________
Layer (type)                 Output Shape              Param #   
=================================================================
lstm_27 (LSTM)               (None, 14, 128)           66560     
_________________________________________________________________
dropout_27 (Dropout)         (None, 14, 128)           0         
_________________________________________________________________
lstm_28 (LSTM)               (None, 128)               131584    
_________________________________________________________________
dropout_28 (Dropout)         (None, 128)               0         
_________________________________________________________________
dense_27 (Dense)             (None, 32)                4128      
_________________________________________________________________
dense_28 (Dense)             (None, 1)                 33        
=================================================================
Total params: 202,305
Trainable params: 202,305
Non-trainable params: 0
_________________________________________________________________
window: 14 accuracy: 0.5
Test for all data: window: 14 accuracy: 0.486652977413
('Compilation Time : ', 0.046391963958740234)
_________________________________________________________________
Layer (type)                 Output Shape              Param #   
=================================================================
lstm_29 (LSTM)               (None, 15, 128)           66560     
_________________________________________________________________
dropout_29 (Dropout)         (None, 15, 128)           0         
_________________________________________________________________
lstm_30 (LSTM)               (None, 128)               131584    
_________________________________________________________________
dropout_30 (Dropout)         (None, 128)               0         
_________________________________________________________________
dense_29 (Dense)             (None, 32)                4128      
_________________________________________________________________
dense_30 (Dense)             (None, 1)                 33        
=================================================================
Total params: 202,305
Trainable params: 202,305
Non-trainable params: 0
_________________________________________________________________
window: 15 accuracy: 0.458333333333
Test for all data: window: 15 accuracy: 0.491769547325
('Compilation Time : ', 0.03909778594970703)
_________________________________________________________________
Layer (type)                 Output Shape              Param #   
=================================================================
lstm_31 (LSTM)               (None, 16, 128)           66560     
_________________________________________________________________
dropout_31 (Dropout)         (None, 16, 128)           0         
_________________________________________________________________
lstm_32 (LSTM)               (None, 128)               131584    
_________________________________________________________________
dropout_32 (Dropout)         (None, 128)               0         
_________________________________________________________________
dense_31 (Dense)             (None, 32)                4128      
_________________________________________________________________
dense_32 (Dense)             (None, 1)                 33        
=================================================================
Total params: 202,305
Trainable params: 202,305
Non-trainable params: 0
_________________________________________________________________
window: 16 accuracy: 0.416666666667
Test for all data: window: 16 accuracy: 0.484536082474
Using TensorFlow backend.
('testing for: ', 'c')
('Compilation Time : ', 0.05592608451843262)
_________________________________________________________________
Layer (type)                 Output Shape              Param #   
=================================================================
lstm_1 (LSTM)                (None, 1, 128)            66560     
_________________________________________________________________
dropout_1 (Dropout)          (None, 1, 128)            0         
_________________________________________________________________
lstm_2 (LSTM)                (None, 128)               131584    
_________________________________________________________________
dropout_2 (Dropout)          (None, 128)               0         
_________________________________________________________________
dense_1 (Dense)              (None, 32)                4128      
_________________________________________________________________
dense_2 (Dense)              (None, 1)                 33        
=================================================================
Total params: 202,305
Trainable params: 202,305
Non-trainable params: 0
_________________________________________________________________
2018-01-03 11:22:13.319097: I tensorflow/core/platform/cpu_feature_guard.cc:137] Your CPU supports instructions that this TensorFlow binary was not compiled to use: SSE4.2 AVX AVX2 FMA
window: 1 accuracy: 0.525974025974
Test for all data: window: 1 accuracy: 0.45935483871
('Compilation Time : ', 0.03885698318481445)
_________________________________________________________________
Layer (type)                 Output Shape              Param #   
=================================================================
lstm_3 (LSTM)                (None, 2, 128)            66560     
_________________________________________________________________
dropout_3 (Dropout)          (None, 2, 128)            0         
_________________________________________________________________
lstm_4 (LSTM)                (None, 128)               131584    
_________________________________________________________________
dropout_4 (Dropout)          (None, 128)               0         
_________________________________________________________________
dense_3 (Dense)              (None, 32)                4128      
_________________________________________________________________
dense_4 (Dense)              (None, 1)                 33        
=================================================================
Total params: 202,305
Trainable params: 202,305
Non-trainable params: 0
_________________________________________________________________
window: 2 accuracy: 0.428571428571
Test for all data: window: 2 accuracy: 0.474499677211
('Compilation Time : ', 0.057012081146240234)
_________________________________________________________________
Layer (type)                 Output Shape              Param #   
=================================================================
lstm_5 (LSTM)                (None, 3, 128)            66560     
_________________________________________________________________
dropout_5 (Dropout)          (None, 3, 128)            0         
_________________________________________________________________
lstm_6 (LSTM)                (None, 128)               131584    
_________________________________________________________________
dropout_6 (Dropout)          (None, 128)               0         
_________________________________________________________________
dense_5 (Dense)              (None, 32)                4128      
_________________________________________________________________
dense_6 (Dense)              (None, 1)                 33        
=================================================================
Total params: 202,305
Trainable params: 202,305
Non-trainable params: 0
_________________________________________________________________
window: 3 accuracy: 0.487012987013
Test for all data: window: 3 accuracy: 0.489018087855
('Compilation Time : ', 0.035733938217163086)
_________________________________________________________________
Layer (type)                 Output Shape              Param #   
=================================================================
lstm_7 (LSTM)                (None, 4, 128)            66560     
_________________________________________________________________
dropout_7 (Dropout)          (None, 4, 128)            0         
_________________________________________________________________
lstm_8 (LSTM)                (None, 128)               131584    
_________________________________________________________________
dropout_8 (Dropout)          (None, 128)               0         
_________________________________________________________________
dense_7 (Dense)              (None, 32)                4128      
_________________________________________________________________
dense_8 (Dense)              (None, 1)                 33        
=================================================================
Total params: 202,305
Trainable params: 202,305
Non-trainable params: 0
_________________________________________________________________
window: 4 accuracy: 0.525974025974
Test for all data: window: 4 accuracy: 0.480284421461
('Compilation Time : ', 0.037322044372558594)
_________________________________________________________________
Layer (type)                 Output Shape              Param #   
=================================================================
lstm_9 (LSTM)                (None, 5, 128)            66560     
_________________________________________________________________
dropout_9 (Dropout)          (None, 5, 128)            0         
_________________________________________________________________
lstm_10 (LSTM)               (None, 128)               131584    
_________________________________________________________________
dropout_10 (Dropout)         (None, 128)               0         
_________________________________________________________________
dense_9 (Dense)              (None, 32)                4128      
_________________________________________________________________
dense_10 (Dense)             (None, 1)                 33        
=================================================================
Total params: 202,305
Trainable params: 202,305
Non-trainable params: 0
_________________________________________________________________
window: 5 accuracy: 0.474025974026
Test for all data: window: 5 accuracy: 0.487063389392
('Compilation Time : ', 0.05011892318725586)
_________________________________________________________________
Layer (type)                 Output Shape              Param #   
=================================================================
lstm_11 (LSTM)               (None, 6, 128)            66560     
_________________________________________________________________
dropout_11 (Dropout)         (None, 6, 128)            0         
_________________________________________________________________
lstm_12 (LSTM)               (None, 128)               131584    
_________________________________________________________________
dropout_12 (Dropout)         (None, 128)               0         
_________________________________________________________________
dense_11 (Dense)             (None, 32)                4128      
_________________________________________________________________
dense_12 (Dense)             (None, 1)                 33        
=================================================================
Total params: 202,305
Trainable params: 202,305
Non-trainable params: 0
_________________________________________________________________
window: 6 accuracy: 0.525974025974
Test for all data: window: 6 accuracy: 0.500970873786
('Compilation Time : ', 0.037190914154052734)
_________________________________________________________________
Layer (type)                 Output Shape              Param #   
=================================================================
lstm_13 (LSTM)               (None, 7, 128)            66560     
_________________________________________________________________
dropout_13 (Dropout)         (None, 7, 128)            0         
_________________________________________________________________
lstm_14 (LSTM)               (None, 128)               131584    
_________________________________________________________________
dropout_14 (Dropout)         (None, 128)               0         
_________________________________________________________________
dense_13 (Dense)             (None, 32)                4128      
_________________________________________________________________
dense_14 (Dense)             (None, 1)                 33        
=================================================================
Total params: 202,305
Trainable params: 202,305
Non-trainable params: 0
_________________________________________________________________
window: 7 accuracy: 0.483660130719
Test for all data: window: 7 accuracy: 0.488989637306
('Compilation Time : ', 0.03510117530822754)
_________________________________________________________________
Layer (type)                 Output Shape              Param #   
=================================================================
lstm_15 (LSTM)               (None, 8, 128)            66560     
_________________________________________________________________
dropout_15 (Dropout)         (None, 8, 128)            0         
_________________________________________________________________
lstm_16 (LSTM)               (None, 128)               131584    
_________________________________________________________________
dropout_16 (Dropout)         (None, 128)               0         
_________________________________________________________________
dense_15 (Dense)             (None, 32)                4128      
_________________________________________________________________
dense_16 (Dense)             (None, 1)                 33        
=================================================================
Total params: 202,305
Trainable params: 202,305
Non-trainable params: 0
_________________________________________________________________
window: 8 accuracy: 0.490196078431
Test for all data: window: 8 accuracy: 0.48736228127
('Compilation Time : ', 0.03367495536804199)
_________________________________________________________________
Layer (type)                 Output Shape              Param #   
=================================================================
lstm_17 (LSTM)               (None, 9, 128)            66560     
_________________________________________________________________
dropout_17 (Dropout)         (None, 9, 128)            0         
_________________________________________________________________
lstm_18 (LSTM)               (None, 128)               131584    
_________________________________________________________________
dropout_18 (Dropout)         (None, 128)               0         
_________________________________________________________________
dense_17 (Dense)             (None, 32)                4128      
_________________________________________________________________
dense_18 (Dense)             (None, 1)                 33        
=================================================================
Total params: 202,305
Trainable params: 202,305
Non-trainable params: 0
_________________________________________________________________
window: 9 accuracy: 0.464052287582
Test for all data: window: 9 accuracy: 0.500648508431
('Compilation Time : ', 0.05536389350891113)
_________________________________________________________________
Layer (type)                 Output Shape              Param #   
=================================================================
lstm_19 (LSTM)               (None, 10, 128)           66560     
_________________________________________________________________
dropout_19 (Dropout)         (None, 10, 128)           0         
_________________________________________________________________
lstm_20 (LSTM)               (None, 128)               131584    
_________________________________________________________________
dropout_20 (Dropout)         (None, 128)               0         
_________________________________________________________________
dense_19 (Dense)             (None, 32)                4128      
_________________________________________________________________
dense_20 (Dense)             (None, 1)                 33        
=================================================================
Total params: 202,305
Trainable params: 202,305
Non-trainable params: 0
_________________________________________________________________
window: 10 accuracy: 0.483660130719
Test for all data: window: 10 accuracy: 0.494484101233
('Compilation Time : ', 0.03909897804260254)
_________________________________________________________________
Layer (type)                 Output Shape              Param #   
=================================================================
lstm_21 (LSTM)               (None, 11, 128)           66560     
_________________________________________________________________
dropout_21 (Dropout)         (None, 11, 128)           0         
_________________________________________________________________
lstm_22 (LSTM)               (None, 128)               131584    
_________________________________________________________________
dropout_22 (Dropout)         (None, 128)               0         
_________________________________________________________________
dense_21 (Dense)             (None, 32)                4128      
_________________________________________________________________
dense_22 (Dense)             (None, 1)                 33        
=================================================================
Total params: 202,305
Trainable params: 202,305
Non-trainable params: 0
_________________________________________________________________
window: 11 accuracy: 0.490196078431
Test for all data: window: 11 accuracy: 0.5
('Compilation Time : ', 0.038038015365600586)
_________________________________________________________________
Layer (type)                 Output Shape              Param #   
=================================================================
lstm_23 (LSTM)               (None, 12, 128)           66560     
_________________________________________________________________
dropout_23 (Dropout)         (None, 12, 128)           0         
_________________________________________________________________
lstm_24 (LSTM)               (None, 128)               131584    
_________________________________________________________________
dropout_24 (Dropout)         (None, 128)               0         
_________________________________________________________________
dense_23 (Dense)             (None, 32)                4128      
_________________________________________________________________
dense_24 (Dense)             (None, 1)                 33        
=================================================================
Total params: 202,305
Trainable params: 202,305
Non-trainable params: 0
_________________________________________________________________
window: 12 accuracy: 0.490196078431
Test for all data: window: 12 accuracy: 0.495126705653
('Compilation Time : ', 0.0487360954284668)
_________________________________________________________________
Layer (type)                 Output Shape              Param #   
=================================================================
lstm_25 (LSTM)               (None, 13, 128)           66560     
_________________________________________________________________
dropout_25 (Dropout)         (None, 13, 128)           0         
_________________________________________________________________
lstm_26 (LSTM)               (None, 128)               131584    
_________________________________________________________________
dropout_26 (Dropout)         (None, 128)               0         
_________________________________________________________________
dense_25 (Dense)             (None, 32)                4128      
_________________________________________________________________
dense_26 (Dense)             (None, 1)                 33        
=================================================================
Total params: 202,305
Trainable params: 202,305
Non-trainable params: 0
_________________________________________________________________
window: 13 accuracy: 0.516339869281
Test for all data: window: 13 accuracy: 0.477243172952
('Compilation Time : ', 0.04991888999938965)
_________________________________________________________________
Layer (type)                 Output Shape              Param #   
=================================================================
lstm_27 (LSTM)               (None, 14, 128)           66560     
_________________________________________________________________
dropout_27 (Dropout)         (None, 14, 128)           0         
_________________________________________________________________
lstm_28 (LSTM)               (None, 128)               131584    
_________________________________________________________________
dropout_28 (Dropout)         (None, 128)               0         
_________________________________________________________________
dense_27 (Dense)             (None, 32)                4128      
_________________________________________________________________
dense_28 (Dense)             (None, 1)                 33        
=================================================================
Total params: 202,305
Trainable params: 202,305
Non-trainable params: 0
_________________________________________________________________
window: 14 accuracy: 0.529411764706
Test for all data: window: 14 accuracy: 0.478204294079
('Compilation Time : ', 0.042942047119140625)
_________________________________________________________________
Layer (type)                 Output Shape              Param #   
=================================================================
lstm_29 (LSTM)               (None, 15, 128)           66560     
_________________________________________________________________
dropout_29 (Dropout)         (None, 15, 128)           0         
_________________________________________________________________
lstm_30 (LSTM)               (None, 128)               131584    
_________________________________________________________________
dropout_30 (Dropout)         (None, 128)               0         
_________________________________________________________________
dense_29 (Dense)             (None, 32)                4128      
_________________________________________________________________
dense_30 (Dense)             (None, 1)                 33        
=================================================================
Total params: 202,305
Trainable params: 202,305
Non-trainable params: 0
_________________________________________________________________
window: 15 accuracy: 0.490196078431
Test for all data: window: 15 accuracy: 0.505208333333
('Compilation Time : ', 0.03461098670959473)
_________________________________________________________________
Layer (type)                 Output Shape              Param #   
=================================================================
lstm_31 (LSTM)               (None, 16, 128)           66560     
_________________________________________________________________
dropout_31 (Dropout)         (None, 16, 128)           0         
_________________________________________________________________
lstm_32 (LSTM)               (None, 128)               131584    
_________________________________________________________________
dropout_32 (Dropout)         (None, 128)               0         
_________________________________________________________________
dense_31 (Dense)             (None, 32)                4128      
_________________________________________________________________
dense_32 (Dense)             (None, 1)                 33        
=================================================================
Total params: 202,305
Trainable params: 202,305
Non-trainable params: 0
_________________________________________________________________
window: 16 accuracy: 0.503267973856
Test for all data: window: 16 accuracy: 0.48664495114
Using TensorFlow backend.
('testing for: ', 'CF')
('Compilation Time : ', 0.07052397727966309)
_________________________________________________________________
Layer (type)                 Output Shape              Param #   
=================================================================
lstm_1 (LSTM)                (None, 1, 128)            66560     
_________________________________________________________________
dropout_1 (Dropout)          (None, 1, 128)            0         
_________________________________________________________________
lstm_2 (LSTM)                (None, 128)               131584    
_________________________________________________________________
dropout_2 (Dropout)          (None, 128)               0         
_________________________________________________________________
dense_1 (Dense)              (None, 32)                4128      
_________________________________________________________________
dense_2 (Dense)              (None, 1)                 33        
=================================================================
Total params: 202,305
Trainable params: 202,305
Non-trainable params: 0
_________________________________________________________________
2018-01-03 11:57:47.374719: I tensorflow/core/platform/cpu_feature_guard.cc:137] Your CPU supports instructions that this TensorFlow binary was not compiled to use: SSE4.2 AVX AVX2 FMA
window: 1 accuracy: 0.480519480519
Test for all data: window: 1 accuracy: 0.488716956802
('Compilation Time : ', 0.06082296371459961)
_________________________________________________________________
Layer (type)                 Output Shape              Param #   
=================================================================
lstm_3 (LSTM)                (None, 2, 128)            66560     
_________________________________________________________________
dropout_3 (Dropout)          (None, 2, 128)            0         
_________________________________________________________________
lstm_4 (LSTM)                (None, 128)               131584    
_________________________________________________________________
dropout_4 (Dropout)          (None, 128)               0         
_________________________________________________________________
dense_3 (Dense)              (None, 32)                4128      
_________________________________________________________________
dense_4 (Dense)              (None, 1)                 33        
=================================================================
Total params: 202,305
Trainable params: 202,305
Non-trainable params: 0
_________________________________________________________________
window: 2 accuracy: 0.454545454545
Test for all data: window: 2 accuracy: 0.487741935484
('Compilation Time : ', 0.06395196914672852)
_________________________________________________________________
Layer (type)                 Output Shape              Param #   
=================================================================
lstm_5 (LSTM)                (None, 3, 128)            66560     
_________________________________________________________________
dropout_5 (Dropout)          (None, 3, 128)            0         
_________________________________________________________________
lstm_6 (LSTM)                (None, 128)               131584    
_________________________________________________________________
dropout_6 (Dropout)          (None, 128)               0         
_________________________________________________________________
dense_5 (Dense)              (None, 32)                4128      
_________________________________________________________________
dense_6 (Dense)              (None, 1)                 33        
=================================================================
Total params: 202,305
Trainable params: 202,305
Non-trainable params: 0
_________________________________________________________________
window: 3 accuracy: 0.5
Test for all data: window: 3 accuracy: 0.493867010975
('Compilation Time : ', 0.03373980522155762)
_________________________________________________________________
Layer (type)                 Output Shape              Param #   
=================================================================
lstm_7 (LSTM)                (None, 4, 128)            66560     
_________________________________________________________________
dropout_7 (Dropout)          (None, 4, 128)            0         
_________________________________________________________________
lstm_8 (LSTM)                (None, 128)               131584    
_________________________________________________________________
dropout_8 (Dropout)          (None, 128)               0         
_________________________________________________________________
dense_7 (Dense)              (None, 32)                4128      
_________________________________________________________________
dense_8 (Dense)              (None, 1)                 33        
=================================================================
Total params: 202,305
Trainable params: 202,305
Non-trainable params: 0
_________________________________________________________________
window: 4 accuracy: 0.435064935065
Test for all data: window: 4 accuracy: 0.50322997416
('Compilation Time : ', 0.0451960563659668)
_________________________________________________________________
Layer (type)                 Output Shape              Param #   
=================================================================
lstm_9 (LSTM)                (None, 5, 128)            66560     
_________________________________________________________________
dropout_9 (Dropout)          (None, 5, 128)            0         
_________________________________________________________________
lstm_10 (LSTM)               (None, 128)               131584    
_________________________________________________________________
dropout_10 (Dropout)         (None, 128)               0         
_________________________________________________________________
dense_9 (Dense)              (None, 32)                4128      
_________________________________________________________________
dense_10 (Dense)             (None, 1)                 33        
=================================================================
Total params: 202,305
Trainable params: 202,305
Non-trainable params: 0
_________________________________________________________________
window: 5 accuracy: 0.480519480519
Test for all data: window: 5 accuracy: 0.510665804783
('Compilation Time : ', 0.05836200714111328)
_________________________________________________________________
Layer (type)                 Output Shape              Param #   
=================================================================
lstm_11 (LSTM)               (None, 6, 128)            66560     
_________________________________________________________________
dropout_11 (Dropout)         (None, 6, 128)            0         
_________________________________________________________________
lstm_12 (LSTM)               (None, 128)               131584    
_________________________________________________________________
dropout_12 (Dropout)         (None, 128)               0         
_________________________________________________________________
dense_11 (Dense)             (None, 32)                4128      
_________________________________________________________________
dense_12 (Dense)             (None, 1)                 33        
=================================================================
Total params: 202,305
Trainable params: 202,305
Non-trainable params: 0
_________________________________________________________________
window: 6 accuracy: 0.448051948052
Test for all data: window: 6 accuracy: 0.495472186287
('Compilation Time : ', 0.06060314178466797)
_________________________________________________________________
Layer (type)                 Output Shape              Param #   
=================================================================
lstm_13 (LSTM)               (None, 7, 128)            66560     
_________________________________________________________________
dropout_13 (Dropout)         (None, 7, 128)            0         
_________________________________________________________________
lstm_14 (LSTM)               (None, 128)               131584    
_________________________________________________________________
dropout_14 (Dropout)         (None, 128)               0         
_________________________________________________________________
dense_13 (Dense)             (None, 32)                4128      
_________________________________________________________________
dense_14 (Dense)             (None, 1)                 33        
=================================================================
Total params: 202,305
Trainable params: 202,305
Non-trainable params: 0
_________________________________________________________________
window: 7 accuracy: 0.402597402597
Test for all data: window: 7 accuracy: 0.490614886731
('Compilation Time : ', 0.033805131912231445)
_________________________________________________________________
Layer (type)                 Output Shape              Param #   
=================================================================
lstm_15 (LSTM)               (None, 8, 128)            66560     
_________________________________________________________________
dropout_15 (Dropout)         (None, 8, 128)            0         
_________________________________________________________________
lstm_16 (LSTM)               (None, 128)               131584    
_________________________________________________________________
dropout_16 (Dropout)         (None, 128)               0         
_________________________________________________________________
dense_15 (Dense)             (None, 32)                4128      
_________________________________________________________________
dense_16 (Dense)             (None, 1)                 33        
=================================================================
Total params: 202,305
Trainable params: 202,305
Non-trainable params: 0
_________________________________________________________________
window: 8 accuracy: 0.398692810458
Test for all data: window: 8 accuracy: 0.488341968912
('Compilation Time : ', 0.03892707824707031)
_________________________________________________________________
Layer (type)                 Output Shape              Param #   
=================================================================
lstm_17 (LSTM)               (None, 9, 128)            66560     
_________________________________________________________________
dropout_17 (Dropout)         (None, 9, 128)            0         
_________________________________________________________________
lstm_18 (LSTM)               (None, 128)               131584    
_________________________________________________________________
dropout_18 (Dropout)         (None, 128)               0         
_________________________________________________________________
dense_17 (Dense)             (None, 32)                4128      
_________________________________________________________________
dense_18 (Dense)             (None, 1)                 33        
=================================================================
Total params: 202,305
Trainable params: 202,305
Non-trainable params: 0
_________________________________________________________________
window: 9 accuracy: 0.411764705882
Test for all data: window: 9 accuracy: 0.48865845755
('Compilation Time : ', 0.04671311378479004)
_________________________________________________________________
Layer (type)                 Output Shape              Param #   
=================================================================
lstm_19 (LSTM)               (None, 10, 128)           66560     
_________________________________________________________________
dropout_19 (Dropout)         (None, 10, 128)           0         
_________________________________________________________________
lstm_20 (LSTM)               (None, 128)               131584    
_________________________________________________________________
dropout_20 (Dropout)         (None, 128)               0         
_________________________________________________________________
dense_19 (Dense)             (None, 32)                4128      
_________________________________________________________________
dense_20 (Dense)             (None, 1)                 33        
=================================================================
Total params: 202,305
Trainable params: 202,305
Non-trainable params: 0
_________________________________________________________________
window: 10 accuracy: 0.437908496732
Test for all data: window: 10 accuracy: 0.487678339818
('Compilation Time : ', 0.0460820198059082)
_________________________________________________________________
Layer (type)                 Output Shape              Param #   
=================================================================
lstm_21 (LSTM)               (None, 11, 128)           66560     
_________________________________________________________________
dropout_21 (Dropout)         (None, 11, 128)           0         
_________________________________________________________________
lstm_22 (LSTM)               (None, 128)               131584    
_________________________________________________________________
dropout_22 (Dropout)         (None, 128)               0         
_________________________________________________________________
dense_21 (Dense)             (None, 32)                4128      
_________________________________________________________________
dense_22 (Dense)             (None, 1)                 33        
=================================================================
Total params: 202,305
Trainable params: 202,305
Non-trainable params: 0
_________________________________________________________________
window: 11 accuracy: 0.437908496732
Test for all data: window: 11 accuracy: 0.482154445165
('Compilation Time : ', 0.06503701210021973)
_________________________________________________________________
Layer (type)                 Output Shape              Param #   
=================================================================
lstm_23 (LSTM)               (None, 12, 128)           66560     
_________________________________________________________________
dropout_23 (Dropout)         (None, 12, 128)           0         
_________________________________________________________________
lstm_24 (LSTM)               (None, 128)               131584    
_________________________________________________________________
dropout_24 (Dropout)         (None, 128)               0         
_________________________________________________________________
dense_23 (Dense)             (None, 32)                4128      
_________________________________________________________________
dense_24 (Dense)             (None, 1)                 33        
=================================================================
Total params: 202,305
Trainable params: 202,305
Non-trainable params: 0
_________________________________________________________________
window: 12 accuracy: 0.450980392157
Test for all data: window: 12 accuracy: 0.478571428571
('Compilation Time : ', 0.04124903678894043)
_________________________________________________________________
Layer (type)                 Output Shape              Param #   
=================================================================
lstm_25 (LSTM)               (None, 13, 128)           66560     
_________________________________________________________________
dropout_25 (Dropout)         (None, 13, 128)           0         
_________________________________________________________________
lstm_26 (LSTM)               (None, 128)               131584    
_________________________________________________________________
dropout_26 (Dropout)         (None, 128)               0         
_________________________________________________________________
dense_25 (Dense)             (None, 32)                4128      
_________________________________________________________________
dense_26 (Dense)             (None, 1)                 33        
=================================================================
Total params: 202,305
Trainable params: 202,305
Non-trainable params: 0
_________________________________________________________________
^CTraceback (most recent call last):
  File "/Users/runzhou/fu_pred/fu_pred.py", line 116, in <module>
    verbose=0)
  File "/Users/runzhou/sp/lib/python2.7/site-packages/keras/models.py", line 960, in fit
…
  File "/Users/runzhou/sp/lib/python2.7/site-packages/tensorflow/python/client/session.py", line 1323, in _do_call
    return fn(*args)
  File "/Users/runzhou/sp/lib/python2.7/site-packages/tensorflow/python/client/session.py", line 1302, in _run_fn
    status, run_metadata)
KeyboardInterrupt
Using TensorFlow backend.
('testing for: ', 'cs')
('Compilation Time : ', 0.035299062728881836)
_________________________________________________________________
Layer (type)                 Output Shape              Param #   
=================================================================
lstm_1 (LSTM)                (None, 1, 128)            66560     
_________________________________________________________________
dropout_1 (Dropout)          (None, 1, 128)            0         
_________________________________________________________________
lstm_2 (LSTM)                (None, 128)               131584    
_________________________________________________________________
dropout_2 (Dropout)          (None, 128)               0         
_________________________________________________________________
dense_1 (Dense)              (None, 32)                4128      
_________________________________________________________________
dense_2 (Dense)              (None, 1)                 33        
=================================================================
Total params: 202,305
Trainable params: 202,305
Non-trainable params: 0
_________________________________________________________________
z2018-01-03 12:20:26.071892: I tensorflow/core/platform/cpu_feature_guard.cc:137] Your CPU supports instructions that this TensorFlow binary was not compiled to use: SSE4.2 AVX AVX2 FMA
window: 1 accuracy: 0.483870967742
Test for all data: window: 1 accuracy: 0.492163009404
('Compilation Time : ', 0.07230496406555176)
_________________________________________________________________
Layer (type)                 Output Shape              Param #   
=================================================================
lstm_3 (LSTM)                (None, 2, 128)            66560     
_________________________________________________________________
dropout_3 (Dropout)          (None, 2, 128)            0         
_________________________________________________________________
lstm_4 (LSTM)                (None, 128)               131584    
_________________________________________________________________
dropout_4 (Dropout)          (None, 128)               0         
_________________________________________________________________
dense_3 (Dense)              (None, 32)                4128      
_________________________________________________________________
dense_4 (Dense)              (None, 1)                 33        
=================================================================
Total params: 202,305
Trainable params: 202,305
Non-trainable params: 0
_________________________________________________________________
^R    
^Z
[3]+  Stopped                 ./test.sh
(sp) JoedeMacBook-Pro:fu_pred runzhou$ python fu_pred.py rawdata.xlsx ag
Using TensorFlow backend.
('testing for: ', 'ag')
('Compilation Time : ', 0.05452895164489746)
_________________________________________________________________
Layer (type)                 Output Shape              Param #   
=================================================================
lstm_1 (LSTM)                (None, 1, 128)            66560     
_________________________________________________________________
dropout_1 (Dropout)          (None, 1, 128)            0         
_________________________________________________________________
lstm_2 (LSTM)                (None, 128)               131584    
_________________________________________________________________
dropout_2 (Dropout)          (None, 128)               0         
_________________________________________________________________
dense_1 (Dense)              (None, 32)                4128      
_________________________________________________________________
dense_2 (Dense)              (None, 1)                 33        
=================================================================
Total params: 202,305
Trainable params: 202,305
Non-trainable params: 0
_________________________________________________________________
2018-01-03 12:21:24.381733: I tensorflow/core/platform/cpu_feature_guard.cc:137] Your CPU supports instructions that this TensorFlow binary was not compiled to use: SSE4.2 AVX AVX2 FMA
window: 1 accuracy: 0.541666666667
Test for all data: window: 1 accuracy: 0.452380952381
('Compilation Time : ', 0.06466197967529297)
_________________________________________________________________
Layer (type)                 Output Shape              Param #   
=================================================================
lstm_3 (LSTM)                (None, 2, 128)            66560     
_________________________________________________________________
dropout_3 (Dropout)          (None, 2, 128)            0         
_________________________________________________________________
lstm_4 (LSTM)                (None, 128)               131584    
_________________________________________________________________
dropout_4 (Dropout)          (None, 128)               0         
_________________________________________________________________
dense_3 (Dense)              (None, 32)                4128      
_________________________________________________________________
dense_4 (Dense)              (None, 1)                 33        
=================================================================
Total params: 202,305
Trainable params: 202,305
Non-trainable params: 0
_________________________________________________________________
window: 2 accuracy: 0.53125
Test for all data: window: 2 accuracy: 0.449740932642
('Compilation Time : ', 0.03484296798706055)
_________________________________________________________________
Layer (type)                 Output Shape              Param #   
=================================================================
lstm_5 (LSTM)                (None, 3, 128)            66560     
_________________________________________________________________
dropout_5 (Dropout)          (None, 3, 128)            0         
_________________________________________________________________
lstm_6 (LSTM)                (None, 128)               131584    
_________________________________________________________________
dropout_6 (Dropout)          (None, 128)               0         
_________________________________________________________________
dense_5 (Dense)              (None, 32)                4128      
_________________________________________________________________
dense_6 (Dense)              (None, 1)                 33        
=================================================================
Total params: 202,305
Trainable params: 202,305
Non-trainable params: 0
_________________________________________________________________
window: 3 accuracy: 0.515789473684
Test for all data: window: 3 accuracy: 0.439834024896
('Compilation Time : ', 0.03596997261047363)
_________________________________________________________________
Layer (type)                 Output Shape              Param #   
=================================================================
lstm_7 (LSTM)                (None, 4, 128)            66560     
_________________________________________________________________
dropout_7 (Dropout)          (None, 4, 128)            0         
_________________________________________________________________
lstm_8 (LSTM)                (None, 128)               131584    
_________________________________________________________________
dropout_8 (Dropout)          (None, 128)               0         
_________________________________________________________________
dense_7 (Dense)              (None, 32)                4128      
_________________________________________________________________
dense_8 (Dense)              (None, 1)                 33        
=================================================================
Total params: 202,305
Trainable params: 202,305
Non-trainable params: 0
_________________________________________________________________
^CTraceback (most recent call last):
  File "fu_pred.py", line 116, in <module>
    verbose=0)
  File "/Users/runzhou/sp/lib/python2.7/site-packages/keras/models.py", line 960, in fit
    validation_steps=validation_steps)
…
  File "/Users/runzhou/sp/lib/python2.7/site-packages/tensorflow/python/client/session.py", line 1323, in _do_call
    return fn(*args)
  File "/Users/runzhou/sp/lib/python2.7/site-packages/tensorflow/python/client/session.py", line 1302, in _run_fn
    status, run_metadata)
KeyboardInterrupt
(sp) JoedeMacBook-Pro:fu_pred runzhou$ python fu_pred.py rawdata.xlsx ag
Using TensorFlow backend.
('testing for: ', 'ag')
('Compilation Time : ', 0.05389094352722168)
_________________________________________________________________
Layer (type)                 Output Shape              Param #   
=================================================================
lstm_1 (LSTM)                (None, 1, 128)            66560     
_________________________________________________________________
dropout_1 (Dropout)          (None, 1, 128)            0         
_________________________________________________________________
lstm_2 (LSTM)                (None, 128)               131584    
_________________________________________________________________
dropout_2 (Dropout)          (None, 128)               0         
_________________________________________________________________
dense_1 (Dense)              (None, 32)                4128      
_________________________________________________________________
dense_2 (Dense)              (None, 1)                 33        
=================================================================
Total params: 202,305
Trainable params: 202,305
Non-trainable params: 0
_________________________________________________________________
2018-01-03 12:38:27.491841: I tensorflow/core/platform/cpu_feature_guard.cc:137] Your CPU supports instructions that this TensorFlow binary was not compiled to use: SSE4.2 AVX AVX2 FMA
window: 1 accuracy: 0.541666666667
Test for all data: window: 1 accuracy: 0.452380952381
('Compilation Time : ', 0.03356003761291504)
_________________________________________________________________
Layer (type)                 Output Shape              Param #   
=================================================================
lstm_3 (LSTM)                (None, 2, 128)            66560     
_________________________________________________________________
dropout_3 (Dropout)          (None, 2, 128)            0         
_________________________________________________________________
lstm_4 (LSTM)                (None, 128)               131584    
_________________________________________________________________
dropout_4 (Dropout)          (None, 128)               0         
_________________________________________________________________
dense_3 (Dense)              (None, 32)                4128      
_________________________________________________________________
dense_4 (Dense)              (None, 1)                 33        
=================================================================
Total params: 202,305
Trainable params: 202,305
Non-trainable params: 0
_________________________________________________________________
window: 2 accuracy: 0.5625
Test for all data: window: 2 accuracy: 0.484974093264
('Compilation Time : ', 0.0326390266418457)
_________________________________________________________________
Layer (type)                 Output Shape              Param #   
=================================================================
lstm_5 (LSTM)                (None, 3, 128)            66560     
_________________________________________________________________
dropout_5 (Dropout)          (None, 3, 128)            0         
_________________________________________________________________
lstm_6 (LSTM)                (None, 128)               131584    
_________________________________________________________________
dropout_6 (Dropout)          (None, 128)               0         
_________________________________________________________________
dense_5 (Dense)              (None, 32)                4128      
_________________________________________________________________
dense_6 (Dense)              (None, 1)                 33        
=================================================================
Total params: 202,305
Trainable params: 202,305
Non-trainable params: 0
_________________________________________________________________
window: 3 accuracy: 0.536842105263
Test for all data: window: 3 accuracy: 0.47510373444
('Compilation Time : ', 0.033390045166015625)
_________________________________________________________________
Layer (type)                 Output Shape              Param #   
=================================================================
lstm_7 (LSTM)                (None, 4, 128)            66560     
_________________________________________________________________
dropout_7 (Dropout)          (None, 4, 128)            0         
_________________________________________________________________
lstm_8 (LSTM)                (None, 128)               131584    
_________________________________________________________________
dropout_8 (Dropout)          (None, 128)               0         
_________________________________________________________________
dense_7 (Dense)              (None, 32)                4128      
_________________________________________________________________
dense_8 (Dense)              (None, 1)                 33        
=================================================================
Total params: 202,305
Trainable params: 202,305
Non-trainable params: 0
_________________________________________________________________
window: 4 accuracy: 0.515789473684
Test for all data: window: 4 accuracy: 0.467289719626
('Compilation Time : ', 0.0564119815826416)
_________________________________________________________________
Layer (type)                 Output Shape              Param #   
=================================================================
lstm_9 (LSTM)                (None, 5, 128)            66560     
_________________________________________________________________
dropout_9 (Dropout)          (None, 5, 128)            0         
_________________________________________________________________
lstm_10 (LSTM)               (None, 128)               131584    
_________________________________________________________________
dropout_10 (Dropout)         (None, 128)               0         
_________________________________________________________________
dense_9 (Dense)              (None, 32)                4128      
_________________________________________________________________
dense_10 (Dense)             (None, 1)                 33        
=================================================================
Total params: 202,305
Trainable params: 202,305
Non-trainable params: 0
_________________________________________________________________
window: 5 accuracy: 0.494736842105
Test for all data: window: 5 accuracy: 0.433471933472
('Compilation Time : ', 0.04471111297607422)
_________________________________________________________________
Layer (type)                 Output Shape              Param #   
=================================================================
lstm_11 (LSTM)               (None, 6, 128)            66560     
_________________________________________________________________
dropout_11 (Dropout)         (None, 6, 128)            0         
_________________________________________________________________
lstm_12 (LSTM)               (None, 128)               131584    
_________________________________________________________________
dropout_12 (Dropout)         (None, 128)               0         
_________________________________________________________________
dense_11 (Dense)             (None, 32)                4128      
_________________________________________________________________
dense_12 (Dense)             (None, 1)                 33        
=================================================================
Total params: 202,305
Trainable params: 202,305
Non-trainable params: 0
_________________________________________________________________
window: 6 accuracy: 0.505263157895
Test for all data: window: 6 accuracy: 0.438085327784
('Compilation Time : ', 0.0498499870300293)
_________________________________________________________________
Layer (type)                 Output Shape              Param #   
=================================================================
lstm_13 (LSTM)               (None, 7, 128)            66560     
_________________________________________________________________
dropout_13 (Dropout)         (None, 7, 128)            0         
_________________________________________________________________
lstm_14 (LSTM)               (None, 128)               131584    
_________________________________________________________________
dropout_14 (Dropout)         (None, 128)               0         
_________________________________________________________________
dense_13 (Dense)             (None, 32)                4128      
_________________________________________________________________
dense_14 (Dense)             (None, 1)                 33        
=================================================================
Total params: 202,305
Trainable params: 202,305
Non-trainable params: 0
_________________________________________________________________
window: 7 accuracy: 0.536842105263
Test for all data: window: 7 accuracy: 0.445833333333
('Compilation Time : ', 0.03329110145568848)
_________________________________________________________________
Layer (type)                 Output Shape              Param #   
=================================================================
lstm_15 (LSTM)               (None, 8, 128)            66560     
_________________________________________________________________
dropout_15 (Dropout)         (None, 8, 128)            0         
_________________________________________________________________
lstm_16 (LSTM)               (None, 128)               131584    
_________________________________________________________________
dropout_16 (Dropout)         (None, 128)               0         
_________________________________________________________________
dense_15 (Dense)             (None, 32)                4128      
_________________________________________________________________
dense_16 (Dense)             (None, 1)                 33        
=================================================================
Total params: 202,305
Trainable params: 202,305
Non-trainable params: 0
_________________________________________________________________
window: 8 accuracy: 0.505263157895
Test for all data: window: 8 accuracy: 0.444212721585
('Compilation Time : ', 0.05316495895385742)
_________________________________________________________________
Layer (type)                 Output Shape              Param #   
=================================================================
lstm_17 (LSTM)               (None, 9, 128)            66560     
_________________________________________________________________
dropout_17 (Dropout)         (None, 9, 128)            0         
_________________________________________________________________
lstm_18 (LSTM)               (None, 128)               131584    
_________________________________________________________________
dropout_18 (Dropout)         (None, 128)               0         
_________________________________________________________________
dense_17 (Dense)             (None, 32)                4128      
_________________________________________________________________
dense_18 (Dense)             (None, 1)                 33        
=================================================================
Total params: 202,305
Trainable params: 202,305
Non-trainable params: 0
_________________________________________________________________
window: 9 accuracy: 0.515789473684
Test for all data: window: 9 accuracy: 0.437369519833
('Compilation Time : ', 0.033804893493652344)
_________________________________________________________________
Layer (type)                 Output Shape              Param #   
=================================================================
lstm_19 (LSTM)               (None, 10, 128)           66560     
_________________________________________________________________
dropout_19 (Dropout)         (None, 10, 128)           0         
_________________________________________________________________
lstm_20 (LSTM)               (None, 128)               131584    
_________________________________________________________________
dropout_20 (Dropout)         (None, 128)               0         
_________________________________________________________________
dense_19 (Dense)             (None, 32)                4128      
_________________________________________________________________
dense_20 (Dense)             (None, 1)                 33        
=================================================================
Total params: 202,305
Trainable params: 202,305
Non-trainable params: 0
_________________________________________________________________
window: 10 accuracy: 0.494736842105
Test for all data: window: 10 accuracy: 0.435736677116
('Compilation Time : ', 0.03761696815490723)
_________________________________________________________________
Layer (type)                 Output Shape              Param #   
=================================================================
lstm_21 (LSTM)               (None, 11, 128)           66560     
_________________________________________________________________
dropout_21 (Dropout)         (None, 11, 128)           0         
_________________________________________________________________
lstm_22 (LSTM)               (None, 128)               131584    
_________________________________________________________________
dropout_22 (Dropout)         (None, 128)               0         
_________________________________________________________________
dense_21 (Dense)             (None, 32)                4128      
_________________________________________________________________
dense_22 (Dense)             (None, 1)                 33        
=================================================================
Total params: 202,305
Trainable params: 202,305
Non-trainable params: 0
_________________________________________________________________
window: 11 accuracy: 0.515789473684
Test for all data: window: 11 accuracy: 0.435146443515
('Compilation Time : ', 0.04305100440979004)
_________________________________________________________________
Layer (type)                 Output Shape              Param #   
=================================================================
lstm_23 (LSTM)               (None, 12, 128)           66560     
_________________________________________________________________
dropout_23 (Dropout)         (None, 12, 128)           0         
_________________________________________________________________
lstm_24 (LSTM)               (None, 128)               131584    
_________________________________________________________________
dropout_24 (Dropout)         (None, 128)               0         
_________________________________________________________________
dense_23 (Dense)             (None, 32)                4128      
_________________________________________________________________
dense_24 (Dense)             (None, 1)                 33        
=================================================================
Total params: 202,305
Trainable params: 202,305
Non-trainable params: 0
_________________________________________________________________
window: 12 accuracy: 0.515789473684
Test for all data: window: 12 accuracy: 0.431413612565
('Compilation Time : ', 0.034481048583984375)
_________________________________________________________________
Layer (type)                 Output Shape              Param #   
=================================================================
lstm_25 (LSTM)               (None, 13, 128)           66560     
_________________________________________________________________
dropout_25 (Dropout)         (None, 13, 128)           0         
_________________________________________________________________
lstm_26 (LSTM)               (None, 128)               131584    
_________________________________________________________________
dropout_26 (Dropout)         (None, 128)               0         
_________________________________________________________________
dense_25 (Dense)             (None, 32)                4128      
_________________________________________________________________
dense_26 (Dense)             (None, 1)                 33        
=================================================================
Total params: 202,305
Trainable params: 202,305
Non-trainable params: 0
_________________________________________________________________
^Z
[5]+  Stopped                 python fu_pred.py rawdata.xlsx ag
(sp) JoedeMacBook-Pro:fu_pred runzhou$ python fu_pred.py rawdata.xlsx ag
Using TensorFlow backend.
('testing for: ', 'ag')
('Compilation Time : ', 0.05114293098449707)
_________________________________________________________________
Layer (type)                 Output Shape              Param #   
=================================================================
lstm_1 (LSTM)                (None, 30, 128)           66560     
_________________________________________________________________
dropout_1 (Dropout)          (None, 30, 128)           0         
_________________________________________________________________
lstm_2 (LSTM)                (None, 128)               131584    
_________________________________________________________________
dropout_2 (Dropout)          (None, 128)               0         
_________________________________________________________________
dense_1 (Dense)              (None, 32)                4128      
_________________________________________________________________
dense_2 (Dense)              (None, 1)                 33        
=================================================================
Total params: 202,305
Trainable params: 202,305
Non-trainable params: 0
_________________________________________________________________
2018-01-03 13:11:39.627228: I tensorflow/core/platform/cpu_feature_guard.cc:137] Your CPU supports instructions that this TensorFlow binary was not compiled to use: SSE4.2 AVX AVX2 FMA
^Z
…
